sensor_model.pt (torch, 199328 bytes, 4 tensors)

fc.0.weight f4 [256, 63]
0.085017115 0.081343986 -0.0017821182 0.054213062 -0.022318358 -0.018067477 -0.04377999 0.011558708
0.09789798 -0.00066245056 0.049978238 0.015769884 0.040088907 0.013604863 0.03990725 0.006325974
0.06943316 0.01238522 -0.04785716 0.0035617321 -0.012403374 -0.043847986 -0.060471278 0.07201029
-0.11915486 -0.055411454 -0.018295307 -0.0322806 0.010344103 -0.05885 0.06344268 -0.105469786
0.06018403 0.036081903 -0.0044170516 0.023343304 0.02211659 0.10198719 0.03221603 0.023302004
-0.021916384 0.02969399 0.036722034 0.066698596 0.029563295 -0.01104093 -0.011149539 0.035893876
-0.008288864 -0.07933947 -0.07761604 0.02272985 0.0018265613 0.04171484 -0.010607943 0.031899873
0.067721136 0.016585749 0.0061129006 -0.07860997 0.011272861 -0.02874978 0.009707586 -0.043388087
0.038604822 -0.02624856 0.10449355 -0.07467342 -0.07513908 -0.07514362 0.113319136 0.041985694
0.12123219 -0.103975035 -0.12496465 -0.098568566 -0.08475085 0.05103026 0.045113318 0.10468663
-0.06506348 -0.08588761 0.066846564 -0.05092498 0.07646521 -0.02989707 0.07207101 -0.09788877
-0.063579895 0.03841082 0.026634846 -0.03212178 0.07509769 0.08564791 -0.09136325 -0.06726107
0.115362555 -0.0425125 -0.044664867 -0.12190546 -0.072149664 0.031472303 -0.016629577 -0.09145304
0.0029552653 -0.08606018 -0.10688793 -0.06937697 -0.11026636 -0.08022145 0.12593888 0.023796007
0.038824473 -0.117507175 -0.08274572 -0.04193589 0.019700909 -0.11085966 -0.0542849 -0.07542515
0.00034914573 -0.0468806 -0.008730445 -0.08537332 -0.08647766 -0.07350171 0.0014249601 -0.055973392
0.09833944 -0.075808756 0.07670063 0.04904989 -0.04729049 0.07053206 -0.039997786 -0.014870025
-0.07667353 -0.109108426 0.03024795 -0.009278922 0.0317179 -0.03240869 0.07538295 -0.0065814783
-0.0057189115 0.05404724 0.06330066 0.0041669207 0.063928775 -0.037092272 0.006334086 -0.0113710305
-0.02195742 -0.06465037 0.07726821 -0.083580695 0.016728533 0.04573756 0.018243384 -0.0010109874
0.12095282 -0.024455136 -0.05016371 -0.081610635 0.040020373 -0.016517777 0.01104112 0.075027086
0.021788593 -0.024241295 -0.059946112 0.0051105227 -0.018183926 0.007972935 -0.010450948 -0.015459481
-0.085582204 0.023945287 0.002504569 0.044037167 0.0077291923 0.04183998 0.029024504 -0.07784723
-0.018194739 -0.019042213 0.006284028 -0.08024063 0.0034896382 0.02742214 -0.025437571 -0.04163369
0.027424898 -0.037666757 -0.068312265 0.023665022 0.0073644193 -0.0061396784 -0.0070433565 0.018565677
-0.1393724 0.0008437156 0.10827289 0.04887844 0.020700987 -0.067620076 -0.058284737 -0.058323007
-0.030099237 0.03633877 0.06139413 0.028109698 -0.07048209 -0.042515498 -0.011098056 0.09903687
0.024874242 0.004033569 0.004176668 -0.0540702 -0.06576763 0.07288663 -0.016453464 -0.01444157
-0.047316693 0.056760505 0.11368062 0.023430802 -0.07484163 -0.060781967 -0.072405905 0.060348686
0.058025043 0.08051663 0.012573835 -0.011884163 0.007726586 -0.013618304 -0.09479695 -0.10133823
0.053597942 0.027437136 0.07233508 -0.036736228 -0.043374483 -0.06789819 0.005875354 0.010061894
-0.039428327 0.036155842 -0.004555277 -0.0017180064 -0.017882116 -0.07965338 -0.060513712 -0.12997742
00000000: 741d ae3d ad97 a63d f795 e9ba 840e 5e3d
00000010: fdd4 b6bc 3f02 94bc a652 33bd bc60 3d3c
00000020: bc7e c83d 4ea8 2dba fbb5 4c3d d82f 813c
00000030: 4434 243d eee6 5e3c c975 233d 1e4a cf3b
00000040: f932 8e3d 61eb 4a3c df05 44bd f36b 693b
00000050: 8537 4bbc f299 33bd bbb0 77bd 227a 933d
00000060: 7707 f4bd 1ff7 62bd 0ae0 95bc aa38 04bd
00000070: 507a 293c b30c 71bd 3cee 813d 8b00 d8bd
00000080: 8883 763d 9eca 133d eabc 90bb 753a bf3c
00000090: da2d b53c a9de d03d f5f4 033d d8e3 be3c
000000a0: fd89 b3bc cf40 f33c d869 163d 4699 883d
000000b0: b92e f23c 04e5 34bc 8eac 36bc 7505 133d
000000c0: 04ce 07bc bb7c a2bd 29f5 9ebd f333 ba3c
000000d0: 3a69 ef3a 2edd 2a3d f0cc 2dbc 71a9 023d
000000e0: 61b1 8a3d d6de 873c ba4e c83b 44fe a0bd
000000f0: ceb1 383c a984 ebbc 910c 1f3c b5b7 31bd
00000100: 1720 1e3d 3807 d7bc b700 d63d 61ee 98bd
00000110: 85e2 99bd e6e4 99bd dd13 e83d 31f9 2b3d
00000120: 9548 f83d ddf0 d4bd 77ed ffbd 51de c9bd
00000130: db91 adbd 1b05 513d bec8 383d f265 d63d
00000140: 0040 85bd d8e5 afbd dae6 883d b696 50bd
00000150: cb99 9c3d b3ea f4bc f799 933d e879 c8bd
00000160: 2d36 82bd aa54 1d3d 5231 da3c 2192 03bd
00000170: d1cc 993d 2c68 af3d a81c bbbd 2cc0 89bd
00000180: 3443 ec3d 9621 2ebd 82f2 36bd 92a9 f9bd
00000190: 34c3 93bd 1ae9 003d c03a 88bc bb4b bbbd
000001a0: 20ad 413b 5240 b0bd 0fe8 dabd 8315 8ebd
000001b0: 54d3 e1bd 254b a4bd 1ff6 003e d8ef c23c
000001c0: 6906 1f3d 9aa7 f0bd 9776 a9bd f8c4 2bbd
000001d0: cd63 a13c 640a e3bd d859 5ebd 8078 9abd
000001e0: 8c0d b739 df05 40bd 240a 0fbc 35d8 aebd
000001f0: 331b b1bd 1188 96bd bac5 ba3a 5b44 65bd
00000200: 3066 c93d 9f41 9bbd 3815 9d3d 8ae8 483d
00000210: acb3 41bd 1d73 903d b8d4 23bd 68a1 73bc
00000220: 0307 9dbd 3d74 dfbd 8dca f73c 9f06 18bc
00000230: a1ea 013d f9be 04bd 6062 9a3d 71a9 d7bb
00000240: b565 bbbb a460 5d3d c7a3 813d aa8a 883b
00000250: 17ed 823d 11ee 17bd 2a8e cf3b 8f4d 3abc
00000260: 0ce0 b3bc 6a67 84bd cc3e 9e3d 5b2c abbd
00000270: 470a 893c 4f57 3b3d 2673 953c 1c83 84ba
00000280: 1db6 f73d 2356 c8bc 7678 4dbd 7a23 a7bd
00000290: 67ec 233d 4a50 87bc d0e5 343c cda7 993d
000002a0: fe7d b23c ae95 c6bc 0e8a 75bd 2c76 a73b
000002b0: 75f6 94bc eaa0 023c 743a 2bbc c349 7dbc
000002c0: b945 afbd e828 c43c b223 243b 5160 343d
000002d0: 2a45 fd3b 6660 2b3d ccc4 ed3c 5e6e 9fbd
000002e0: 220d 95bc 6afe 9bbc 3fea cd3b 3355 a4bd
000002f0: 6ab2 643b 65a4 e03c 7462 d0bc 1788 2abd
00000300: 2eaa e03c 7548 1abd 4de7 8bbd 26dd c13c
00000310: 3a51 f13b 5b2f c9bb f5cb e6bb 0c17 983c
00000320: a3b7 0ebe cc2c 5d3a 2dbe dd3d c234 483d
00000330: 1e95 a93c 657c 8abd fabb 6ebd 1be4 6ebd
00000340: ad92 f6bc f6d7 143d 6978 7b3d 4f46 e63c
00000350: ea58 90bd bb24 2ebd 9fd4 35bc d8d3 ca3d
00000360: 11c5 cb3c 072c 843b 6edc 883b b778 5dbd
00000370: 2eb1 86bd 9645 953d 6ac9 86bc 569c 6cbc
00000380: 26cf 41bd b47d 683d 63d1 e83d f4f1 bf3c
00000390: 9246 99bd 83f6 78bd 8c49 94bd 2f30 773d
000003a0: abab 6d3d e7e5 a43d 7d02 4e3c cbb5 42bc
000003b0: 4d2f fd3b 4f1f 5fbc e724 c2bd 6b8a cfbd
000003c0: 8489 5b3d d8c3 e03c 6a24 943d ba78 16bd
000003d0: 71a9 31bd 350e 8bbd 0b86 c03b a4da 243c
000003e0: 997f 21bd 2618 143d 6f44 95bb bb2e e1ba
000003f0: 847d 92bc 5021 a3bd 3add 77bd cd18 05be

fc.0.bias f4 [256]
-0.07377547 -0.07496036 0.07348563 -0.001817828 -0.10449831 0.11334252 -0.039770443 0.12368916
0.11911492 0.021766962 -0.10862358 0.026349975 -0.0025412757 -0.066307336 -0.09403162 -0.095718004
0.019451488 0.031094024 0.034584265 0.07290319 -0.06431158 -0.045437876 0.09930159 -0.10473157
-0.12143284 0.10951896 0.07809525 -0.021073505 0.028125178 -0.039647512 -0.03015562 0.021029271
-0.05096751 0.008850763 -0.047329906 -0.10954037 0.058737945 -0.09117936 -0.13962422 0.008534233
0.081656046 0.04373573 -0.08914606 0.0599848 -0.054435175 0.0076593417 0.05542862 0.028504333
-0.06332339 0.05163405 -0.056999017 -0.042160783 0.086892076 -0.042679142 0.027475331 0.107479684
0.11536131 0.021561656 0.0867861 -0.026229266 -0.06572128 0.09508194 0.07286329 0.08613628
-0.07433924 0.042805124 0.0700615 0.0075587328 0.07251622 -0.12840179 0.049826417 -0.031115633
0.10114661 0.04547634 0.11180121 -0.039940007 0.0027932231 0.090772666 -0.09726463 -0.04709874
-0.10225871 -0.09458876 0.10257111 -0.054724485 0.08238923 -0.0029365513 0.034684256 0.013414258
-0.11672648 -0.018996084 -0.08180193 -0.056125905 0.08771989 -0.09749021 -0.10456026 -0.040402845
0.010515951 0.03109779 0.08084117 0.011464696 -0.0010661243 0.04857168 0.07523636 -0.018691758
-0.08507642 -0.09951513 0.09917592 0.031493 0.115343906 -0.06743036 0.029514365 -0.07235058
-0.06632731 -0.057651322 0.11803928 0.10184664 -0.08854425 -0.10110856 0.01973236 -0.033612654
0.006025246 -0.007286021 -0.11031703 0.016754968 -0.0040370035 -0.092686914 -0.12994 0.05353127
-0.1319547 -0.05675624 0.058812067 -0.07656225 -0.05966624 -0.072796986 0.090364784 0.03897872
-0.0031503693 0.044360913 0.022853179 -0.036888488 -0.011611472 -0.09381197 -0.055832993 -0.017795635
-0.034125216 0.064047076 0.059799124 0.096645616 0.12072294 -0.027649853 0.051977858 -0.1020393
0.07291345 -0.048991077 -0.1021655 -0.09895259 -0.120837666 -0.079976305 0.035933137 -0.12806144
-0.028225444 -0.0344037 0.031404488 -0.051360436 0.06923154 -0.08442935 0.07402771 -0.1305002
-0.08580466 0.024434797 0.02260348 0.08824987 0.046109304 -0.104981065 0.08285164 -0.030826109
-0.036391847 -0.062325258 -0.033404306 -0.12490182 -0.012017477 0.08372453 -0.04015306 0.09676204
-0.07139486 0.032632954 0.012455928 -0.058842078 0.12282255 -0.011993069 -0.003892919 -0.022106545
-0.019170737 0.09563537 -0.032291103 0.06674249 0.04569365 0.08217005 -0.095486335 -0.11595874
-0.058206122 -0.056381322 0.12004554 0.1115595 -0.039306164 -0.08075429 -0.022595325 0.038387876
0.025596535 0.0140042165 0.09252919 0.013392585 0.10194345 0.07724534 -0.024116745 0.09238667
-0.0044607655 0.005027416 -0.04224583 0.07399982 -0.044869483 0.09828875 0.05767932 -0.01760093
-0.020654447 0.049367435 -0.13753231 -0.05299752 -0.060229976 -0.015433857 -0.083236404 -0.06410112
0.03356831 -0.029833995 -0.082276195 -0.009101098 0.062285796 -0.071163945 0.08269164 -0.09489031
0.09312766 0.039613158 -0.0939567 -0.14594239 0.049145967 -0.036003243 0.021847256 0.032536168
-0.10204345 0.009249485 -0.046674024 -0.10763159 0.022227984 0.04142482 -0.108465426 0.10767124
00000000: 9817 97bd d184 99bd a27f 963d 3044 eeba
00000010: 3603 d6bd 2020 e83d 55e6 22bd be50 fd3d
00000020: 86f2 f33d a150 b23c 0a76 debd e7db d73c
00000030: 888b 26bb 24cc 87bd a693 c0bd cd07 c4bd
00000040: ba58 9f3c e5b8 fe3c 3ba8 0d3d 454e 953d
00000050: cab5 83bd 111d 3abd a25e cb3d 817d d6bd
00000060: c8b1 f8bd 7a4b e03d 67f0 9f3d 58a2 acbc
00000070: c666 e63c 6e65 22bd eb08 f7bc 9445 ac3c
00000080: 4fc3 50bd ca02 113c 01dd 41bd b456 e0bd
00000090: 3397 703d 3fbc babd a7f9 0ebe 2bd3 0b3c
000000a0: 493b a73d 3d24 333d 3692 b6bd 9fb2 753d
000000b0: 6bf7 5ebd 37fb fa3b 1f09 633d eb81 e93c
000000c0: b2af 81bd 3a7e 533d cd77 69bd c9b0 2cbd
000000d0: 79f4 b13d 53d0 2ebd f213 e13c 4f1e dc3d
000000e0: 8d42 ec3d 12a2 b03c e9bc b13d c2de d6bc
000000f0: e198 86bd 52ba c23d 5939 953d 3868 b03d
00000100: 2c3f 98bd 6d54 2f3d 677c 8f3d 3faf f73b
00000110: 6283 943d c27b 03be c916 4c3d 36e6 febc
00000120: f425 cf3d 6645 3a3d 08f8 e43d 2298 23bd
00000130: 820e 373b 05e7 b93d ae32 c7bd 9cea 40bd
00000140: 046d d1bd c0b7 c1bd cd10 d23d c826 60bd
00000150: afbb a83d 2873 40bb 1411 0e3d 7ac7 5b3c
00000160: 4b0e efbd ad9d 9bbc c587 a7bd 47e4 65bd
00000170: 7ca6 b33d f2a8 c7bd b123 d6bd 747d 25bd
00000180: 184b 2c3c cbc0 fe3c 0e90 a53d 6cd6 3b3c
00000190: 32bd 8bba 19f3 463d 8515 9a3d 751f 99bc
000001a0: 8c3c aebd 97ce cbbd bf1c cb3d cefe 003d
000001b0: 6d39 ec3d ee18 8abd 1cc8 f13c 8a2c 94bd
000001c0: 9dd6 87bd cb23 6cbd 94be f13d f994 d03d
000001d0: b056 b5bd 0112 cfbd c2a5 a13c 6cad 09bd
000001e0: 6d6f c53b 93bf eebb e5ed e1bd b741 893c
000001f0: d748 84bb a3d2 bdbd fe0e 05be 9b43 5b3d
00000200: 221f 07be 3b79 68bd ece4 703d abcc 9cbd
00000210: 9664 74bd 9616 95bd 2c11 b93d 26a8 1f3d
00000220: 6d76 4ebb cab3 353d 9736 bb3c 6218 17bd
00000230: 0b3e 3ebc 7d20 c0bd 23b1 64bd 27c8 91bc
00000240: e2c6 0bbd 1d2b 833d edef 743d 23ee c53d
00000250: 973d f73d f281 e2bc bce6 543d fbf9 d0bd
00000260: a653 953d deaa 48bd 253c d1bd a8a7 cabd
00000270: bd79 f7bd 9eca a3bd a02e 133d 8a22 03be
00000280: 0c39 e7bc e5ea 0cbd fea1 003d 525f 52bd
00000290: 44c9 8d3d 4ce9 acbd d79b 973d d8a1 05be
000002a0: 5bba afbd 7c2b c83c ef2a b93c 59bc b43d
000002b0: 1cdd 3c3d 5000 d7bd 1fae a93d 0987 fcbc
000002c0: 9e0f 15bd c548 7fbd f4d2 08bd 87cc ffbd
000002d0: f4e4 44bc c477 ab3d 8977 24bd 2d2b c63d
000002e0: 7837 92bd 22aa 053d f313 4c3c 6404 71bd
000002f0: 648a fb3d 947e 44bc 5820 7fbb c918 b5bc
00000300: f30b 9dbc 7adc c33d ad43 04bd 49b0 883d
00000310: 4429 3b3d c548 a83d 578e c3bd c77b edbd
00000320: 8b69 6ebd 1af0 66bd 70da f53d 4f79 e43d
00000330: 80ff 20bd 8162 a5bd d519 b9bc 9b3c 1d3d
00000340: d3af d13c f171 653c f27f bd3d 936c 5b3c
00000350: bac7 d03d ce32 9e3d 7b90 c5bc 3935 bd3d
00000360: 9d2b 92bb 06bd a43b f709 2dbd 388d 973d
00000370: 10c9 37bd 9d4b c93d 2741 6c3d d32f 90bc
00000380: 8433 a9bc 8235 4a3d 45d5 0cbe ed13 59bd
00000390: b5b3 76bd 4ade 7cbc d977 aabd 7347 83bd
000003a0: ed7e 093d 6c66 f4bc 6c80 a8bd c61c 15bc
000003b0: 641f 7f3d 67be 91bd 3c5a a93d da55 c2bd
000003c0: b7b9 be3d 6841 223d 5f6c c0bd ec71 15be
000003d0: 484d 493d 2378 13bd 04f9 b23c a544 053d
000003e0: 28fc d0bd 278b 173c 432d 3fbd f36d dcbd
000003f0: 7617 b63c 12ad 293d 1f23 debd bd82 dc3d

fc.2.weight f4 [128, 256]
0.02205598 0.035531648 -0.03212163 -0.022434773 0.023140516 0.033844545 -0.053600676 0.033602986
-0.004660436 -0.050669104 -0.040506408 -0.013927289 0.038159963 -0.047499523 0.0463193 0.029144453
0.05875305 0.028430564 -0.0146517195 -0.023759604 0.033265255 -0.013052672 0.009005616 0.022124648
-0.05360672 -0.0075409925 -0.009699234 -0.0134281125 -0.005255166 0.008636441 0.06140779 0.0078638
-0.03378529 0.05166151 -0.01046712 0.0038781748 0.005834244 0.021368312 0.03368984 -0.028950183
-0.046916004 0.004193596 0.03742405 -0.03537742 -0.042409528 0.054134663 -0.031721767 -0.04346355
-0.056900032 -0.014184274 -0.035977706 0.00092540926 0.0059834346 -0.049675494 0.019069249 -0.011094692
0.029193847 0.05586529 -0.018221285 0.031350035 0.05313861 0.03989497 0.035561886 0.012234409
0.017417155 -0.044672973 -0.03263619 0.014143582 -0.043001838 0.017852006 -0.036825225 0.054182634
0.048114214 -0.002695625 -0.019735584 -0.019278383 0.050025478 -0.021439439 0.017216988 0.02688801
-0.0052837394 -0.030101186 -0.029029388 -0.018728495 0.038854577 -0.02058142 -0.037262224 0.04401645
0.035594158 -0.003994323 0.046555065 -0.06170852 -0.036716156 0.015039657 -0.045995474 -0.017446741
0.014273235 0.06072987 -0.012560956 -0.06073363 -0.0065926407 0.05194595 -0.01217868 -0.0315777
-0.033092104 -0.025029879 -0.010253063 -0.038128126 0.008597842 0.017108781 -0.034724616 -0.00742317
0.03509091 -0.05840467 -0.041583307 -0.011745565 0.054446608 -0.009995133 0.013052606 -0.016910799
0.03501016 -0.016593918 0.015402979 -0.047965106 0.019726768 0.04198472 -0.052503098 -0.0077850483
-0.014567202 -0.008392609 -0.052755233 -0.012285507 -0.06426383 0.049704004 -0.04501767 0.038126856
0.03219606 -0.011485122 0.05255423 0.039982505 -0.04358249 0.060729716 0.001634085 0.048927885
-0.032914266 0.009361338 -0.008892639 0.030552454 -0.039573375 0.032686647 -0.015187316 0.03644156
0.0053352043 0.033868767 -0.04640913 -0.025047254 0.004856873 0.029615501 0.027099244 0.024338283
0.04568656 -0.041000366 0.03502329 0.029961318 0.0021030812 -0.0065855556 -0.062067635 0.031569704
-0.0009635538 0.008286804 -0.029924095 -0.04699123 0.032797188 0.04403481 0.03224756 0.041281193
0.043538164 0.04227164 0.05044236 -0.00050463673 0.0066451957 -0.060777914 -0.033413216 0.0035087913
0.008528998 0.052445367 0.04490239 0.027618928 0.03448336 -0.041270938 0.011977187 -0.043608464
-0.054464873 0.031215927 0.011598647 -0.009449416 -0.03546415 0.04505553 -0.0047947094 0.037109762
-0.043762114 0.034524575 -0.029717918 -0.0230541 -0.014160231 -0.035315398 -0.015820261 -0.0041795415
-0.036566753 0.025255578 0.059041314 0.004338136 -0.03070163 -0.0029149323 -0.049246296 -0.040438823
0.043279823 0.028192267 -0.010712897 0.031761125 0.0076049794 0.0052108862 -0.06692295 0.052011583
-0.028944887 -0.05383873 -0.0014674212 0.0036676882 0.020905504 -0.024750058 -0.010848297 -0.018789174
-0.035936598 -0.037196465 -0.021146484 0.039248154 -0.013374477 -0.00953397 -0.028967198 0.04968373
0.0034505152 -0.040565554 0.037484065 -0.028114768 -0.03022665 -0.05559498 -0.0059602326 0.009223634
0.042889662 -0.039755277 -0.04043434 0.017803697 0.005160829 -0.045172773 0.025659561 0.051824443
00000000: beae b43c a289 113d f891 03bd 21c9 b7bc
00000010: 2e91 bd3c 94a0 0a3d 628c 5bbd 49a3 093d
00000020: 92b6 98bb 688a 4fbd 0cea 25bd 492f 64bc
00000030: 9f4d 1c3d dc8e 42bd 4eb9 3d3d 59c0 ee3c
00000040: 0aa7 703d 37e7 e83c c40d 70bc 80a3 c2bc
00000050: 2641 083d e0da 55bc 4b8c 133c c03e b53c
00000060: b892 5bbd 6e1a f7bb 89e9 1ebc 9601 5cbc
00000070: 8733 acbb dc7f 0d3c bc86 7b3d 2bd7 003c
00000080: 7262 0abd 059b 533d 497e 2bbc fa28 7e3b
00000090: 302d bf3b 990c af3c 5cfe 093d ef28 edbc
000000a0: ff2a 40bd 6f6a 893b f649 193d eae7 10bd
000000b0: 9db5 2dbd 4fbc 5d3d afee 01bd d606 32bd
000000c0: 0210 69bd 2865 68bc 5c5d 13bd 2a97 723a
000000d0: b010 c43b 8878 4bbd 1d37 9c3c 83c6 35bc
000000e0: ef27 ef3c 01d3 643d ce44 95bc e568 003d
000000f0: dfa7 593d e868 233d 57a9 113d d572 483c
00000100: 6cae 8e3c 02fb 36bd 87ad 05bd 7cba 673c
00000110: b222 30bd 5f3e 923c 0cd6 16bd 9cee 5d3d
00000120: 6913 453d 15a9 30bb 85ac a1bc b3ed 9dbc
00000130: 84e7 4c3d c3a1 afbc a40a 8d3c 3e44 dc3c
00000140: 3823 adbb c396 f6bc 0acf edbc 806c 99bc
00000150: fa25 1f3d 5e9a a8bc 46a0 18bd 984a 343d
00000160: 2ecb 113d cfe2 82bb 86b0 3e3d 13c2 7cbd
00000170: ae63 16bd e568 763c c065 3cbd 78ec 8ebc
00000180: 49da 693c e2bf 783d 78cc 4dbc d4c3 78bd
00000190: 1407 d8bb 47c5 543d 1689 47bc 9e57 01bd
000001a0: 968b 07bd 760b cdbc 77fc 27bc 3d2c 1cbd
000001b0: f7dd 0c3c b727 8c3c 663b 0ebd 103e f3bb
000001c0: 7cbb 0f3d bc39 6fbd 4253 2abd 7870 40bc
000001d0: 6803 5f3d a0c2 23bc 99da 553c 8488 8abc
000001e0: d066 0f3d f8ef 87bc c75c 7c3c 0f77 44bd
000001f0: 089a a13c 2bf8 2b3d 7d0d 57bd b819 ffbb
00000200: 46ab 6ebc 2781 09bc df15 58bd 2749 49bc
00000210: c19c 83bd 6d96 4b3d 7364 38bd e82a 1c3d
00000220: 04e0 033d 182c 3cbc 1b43 573d b2c4 233d
00000230: 8e83 32bd b9bf 783d cb2e d63a 9b68 483d
00000240: 1cd1 06bd 4c60 193c 6eb2 11bc 2449 fa3c
00000250: b117 22bd 6fe2 053d 38d4 78bc bf43 153d
00000260: f0d2 ae3b fab9 0a3d 8017 3ebd e62f cdbc
00000270: 6726 9f3b 359c f23c 3cff dd3c 1461 c73c
00000280: d521 3b3d 00f0 27bd 9574 0f3d 7071 f53c
00000290: d9d3 093b a5cb d7bb a23a 7ebd 3c4f 013d
000002a0: 0097 7cba 60c5 073c 6023 f5bc e079 40bd
000002b0: 5856 063d d85d 343d 0416 043d 7816 293d
000002c0: 1355 323d 0725 2d3d a69c 4e3d 9949 04ba
000002d0: f1bf d93b 43f2 78bd 4cdc 08bd c0f3 653b
000002e0: 36bd 0b3c f4d0 563d 92eb 373d 1741 e23c
000002f0: 6c3e 0d3d b70b 29bd f73b 443c ca9e 32bd
00000300: 8f16 5fbd 8bb8 ff3c 4008 3e3c b9d1 1abc
00000310: db42 11bd 268c 383d f01c 9dbb 6800 183d
00000320: e73f 33bd a469 0d3d fe72 f3bc f4db bcbc
00000330: 5000 68bc e1a6 10bd 7e99 81bc 89f4 88bb
00000340: 05c7 15bd c9e4 ce3c 4ed5 713d ec26 8e3b
00000350: fc81 fbbc 7308 3fbb 7cb6 49bd 2ea3 25bd
00000360: 2f46 313d 78f3 e63c 2685 2fbc f417 023d
00000370: 3133 f93b 15c0 aa3b e60e 89bd 190a 553d
00000380: d41d edbc 0086 5cbd 7c56 c0ba 995d 703b
00000390: 0542 ab3c a2c0 cabc 0ebd 31bc c1eb 99bc
000003a0: 4132 13bd 525b 18bd 643b adbc acc2 203d
000003b0: 9f20 5bbc 5e34 1cbc 9e4c edbc 2b81 4b3d
000003c0: 0a22 623b 1128 26bd e488 193d f150 e6bc
000003d0: e19d f7bc 90b7 63bd 0e4e c3bb ba1e 173c
000003e0: 12ad 2f3d 6ed6 22bd 7a9e 25bd 0fd9 913c
000003f0: 2c1c a93b 1607 39bd 0034 d23c de45 543d

fc.2.bias f4 [128]
0.008636385 0.0023814067 0.012005277 0.012351602 0.053825527 0.05773273 0.027490348 0.057302207
-0.058054082 0.03409739 -0.02830866 -0.050903693 -0.002826348 0.0020590648 0.009399839 0.034327805
0.03995718 -0.012617983 0.028724834 -0.0077905357 -0.011807494 -0.054955296 -5.826354e-05 0.011986241
0.0015987381 -0.038995676 0.027811684 -0.0057055503 0.040490314 -0.062084123 -0.059097566 -0.027316347
-0.011744924 0.0056952536 -0.042275436 -0.026481822 0.016544692 0.045893393 0.030786626 -0.053806923
-0.0019232184 -0.034141637 0.058438048 -0.040250957 0.011997573 0.04386293 0.032161266 0.038862005
0.04960242 0.024237812 0.060787767 0.03398773 0.010995582 -0.059884258 0.062378526 -0.029330939
-0.05271455 0.04007481 -0.049312383 0.018721052 0.020925492 -0.025198027 0.048482664 -0.003917001
-0.060642973 -0.014624916 -0.02511134 -0.024374306 -0.031684898 -0.04405067 -0.05887626 0.02765876
-0.053322427 -0.024520554 0.008654654 0.05723138 0.03519506 -0.02688627 0.040635303 -0.023720138
5.695969e-05 -0.021197468 0.012482122 0.027329303 -0.0015223175 0.033955403 -0.0067911 -0.03575352
0.040235564 0.045941003 0.016454808 0.0409168 -0.05202204 -0.039390333 0.048747815 -0.046153367
0.003623329 0.041862242 0.009418622 -0.01757048 -0.0033846423 -0.014125384 -0.010361418 -0.056921117
0.05927679 -0.036494657 0.017208613 -0.041034088 0.016329557 0.0022023618 -0.031571195 0.0058837235
-0.011117272 -0.04617761 0.04199709 -0.054433703 0.0051383153 0.027664438 -0.0011674315 0.024472117
-0.012646109 0.0013328567 -0.007525228 -0.031194717 -0.049517684 -0.05520249 -0.013724931 -0.041143954
00000000: a07f 0d3c 6011 1c3b c8b1 443c 605e 4a3c
00000010: 2878 5c3d 2879 6c3d 7033 e13c b8b5 6a3d
00000020: 1eca 6dbd b4a9 0b3d 90e7 e7bc 6480 50bd
00000030: 403a 39bb 60f1 063b c801 1a3c 509b 0c3d
00000040: 24aa 233d a8bb 4ebc 5850 eb3c c047 ffbb
00000050: 3874 41bc ce18 61bd 0060 74b8 f061 443c
00000060: c08c d13a eeb9 1fbd 54d5 e33c a0f5 babb
00000070: 2cd9 253d ec4b 7ebd 4a10 72bd 88c6 dfbc
00000080: c86d 40bc 409f ba3b 0229 2dbd 68f0 d8bc
00000090: bc88 873c b6fa 3b3d 3c34 fc3c a664 5cbd
000000a0: 8014 fcba 1ad8 0bbd bc5c 6f3d 30de 24bd
000000b0: 7891 443c 9ea9 333d 88bb 033d c42d 1f3d
000000c0: e82b 4b3d 608e c63c 98fc 783d b836 0b3d
000000d0: d026 343c 3249 75bd a080 7f3d 7047 f0bc
000000e0: 36eb 57bd 7c25 243d c8fb 49bd e45c 993c
000000f0: f06b ab3c 186c cebc c295 463d 305a 80bb
00000100: c464 78bd 589d 6fbc 4cb6 cdbc a0ac c7bc
00000110: 06c8 01bd 7a6e 34bd 3c28 71bd a094 e23c
00000120: 9e68 5abd 54df c8bc 40cc 0d3c 746b 6a3d
00000130: b228 103d 9840 dcbc 3471 263d bc50 c2bc
00000140: 00e8 6e38 50a6 adbc d081 4c3c b4e1 df3c
00000150: 8088 c7ba d214 0b3d e087 debb 4872 12bd
00000160: 0cce 243d a22c 3c3d 3ccc 863c 6098 273d
00000170: 1015 55bd c257 21bd caab 473d 500b 3dbd
00000180: 6075 6d3b be77 2b3d 9050 1a3c f8ef 8fbc
00000190: e0d0 5dbb 286e 67bc f0c2 29bc 1e26 69bd
000001a0: 38cc 723d 6c7b 15bd 14f9 8c3c 5c13 28bd
000001b0: 90c5 853c 8055 103b cc50 01bd 40cc c03b
000001c0: 3825 36bc bc24 3dbd 2405 2c3d e0f5 5ebd
000001d0: 505f a83b 88a0 e23c 8004 99ba c079 c83c
000001e0: a031 4fbc 40b3 ae3a 3096 f6bb 108c ffbc
000001f0: 0ed3 4abd 021c 62bd 88de 60bc 9086 28bd
