siamese_gru_model.pth (torch, 64760 bytes, 7 tensors)

gru.weight_ih_l0 f4 [192, 3]
000000 d0 39 aa 3d a4 9e 1e be 22 02 e2 bd a9 ea 99 3d
       0.08311808 -0.15490204 -0.11035563 0.07515461
000010 6e 8d 25 bc 99 bd b8 bd a2 22 9b bd 83 aa ce 3d
       -0.01010452 -0.09020538 -0.07574965 0.10091116
000020 95 6e 6b bd b7 5f 84 3d f3 b4 3c bd f9 99 2d bc
       -0.057478506 0.06463569 -0.046071004 -0.010595792
000030 53 cb f0 3b 20 1d 04 3e 24 d6 da bb 56 cb e8 3a
       0.007348457 0.12901735 -0.0066783596 0.0017760794
000040 67 a1 42 bd 38 77 90 3e a5 0f be 3d cc fc 9b 3d
       -0.047517207 0.28215957 0.09280328 0.076165766
000050 3b 7a 20 ba 46 cb a1 bd 19 d4 d8 3d 80 82 db ba
       -0.00061217294 -0.079000995 0.105873294 -0.0016747266
000060 27 04 39 3d c0 b4 35 3e 60 48 30 3c ce e4 e7 bd
       0.045169976 0.17744732 0.010759443 -0.11322938
000070 2d b5 89 3e 09 bc 28 3c 5a c7 9d 3d 86 af cc bd
       0.2689604 0.010298737 0.07704039 -0.09994416
000080 c1 08 c6 3d cc e1 3c 3e 99 98 be bc 86 18 a6 bd
       0.096696384 0.1844551 -0.023266124 -0.08110146
000090 a0 cb ca 3d b5 e9 58 3d 46 90 2d bd 4c a4 48 3d
       0.0990212 0.052957255 -0.042373918 0.04898481
0000a0 93 39 91 3d 8c 29 58 be ee 64 ff 3d e6 10 c8 3d
       0.070910595 -0.21109599 0.12470423 0.09768848
0000b0 10 9f ce bd c1 64 96 bd cd da 05 3e 87 ff 07 be
       -0.100889325 -0.07343436 0.13071747 -0.1328107
0000c0 89 e6 63 3e 77 52 38 bd 27 36 bf 3d 1f fd 4c 3d
       0.22255911 -0.04500052 0.093365006 0.050046083
0000d0 78 65 4a be f6 6c 0f 3e de 11 80 3c 99 c4 35 3e
       -0.1976527 0.14006409 0.01563352 0.17750777
0000e0 2a 02 3b bd 77 40 e3 bc c9 b1 34 3d 6f 03 96 bd
       -0.04565636 -0.0277407 0.04411486 -0.07324874
0000f0 f2 c5 27 bd ea c2 30 3d 7a c7 46 3e 7e a3 ce bd
       -0.04096026 0.043154635 0.19412032 -0.100897774
000100 d0 eb e6 3d 39 f1 92 bc 4b 60 1e be 82 fe 8e bd
       0.112754464 -0.01793729 -0.1546642 -0.06982137
000110 38 e6 f6 3d 1d 0c 9a 3d 70 55 be bb be 9d 26 bd
       0.120556295 0.07521842 -0.005808525 -0.04067778
000120 38 04 a0 3d bc 7c 30 bd 05 e0 82 3e 7e 77 2d 3e
       0.07813305 -0.043087706 0.25561538 0.16940114
000130 af 01 1e 3e f3 e3 b3 bd f5 df 5a 3e 44 72 28 3c
       0.1543033 -0.08783712 0.21374495 0.010281149
000140 fa 60 04 3e 60 89 9f 3d d9 a3 15 3e b8 2a 8d bd
       0.12927619 0.07789874 0.14613284 -0.068929136
000150 72 6b f0 3d d3 c0 d0 bd 3f 46 98 3d cf 4f d4 3d
       0.117392436 -0.10193028 0.074352734 0.10366785
000160 df 8f 14 bd 63 d6 27 3d b8 18 48 3d 87 c9 e5 3c
       -0.03627002 0.04097594 0.0488517 0.028050197
000170 34 de 82 bb 88 45 54 3d 41 f8 ad 3d df ba b8 bc
       -0.003993774 0.051824123 0.08494616 -0.022550045
000180 1b 59 dd 3b 6e 55 3d 3e 48 16 3d 3d 24 7c 93 3d
       0.006755007 0.1848962 0.046163827 0.07201412
000190 06 ba 92 bd fe f0 75 3e c8 e3 66 bc 09 2a 79 3d
       -0.071643874 0.24017712 -0.014092393 0.060831103
0001a0 df 1b 7f 3e a6 05 3f 3e 1a a0 fa 3d dc bd 2b 3e
       0.24912976 0.18654498 0.12237568 0.16771644
0001b0 ec 00 98 3d 6a 77 9a bc ac 3c 5b 3e 9c ee 61 3e
       0.07422051 -0.01885577 0.21409863 0.22063679
0001c0 80 6e c2 39 df 9f 32 bd ea 50 f0 3d 81 db 6b 3c
       0.00037084892 -0.043609496 0.11734183 0.0143955955
0001d0 81 d5 e4 3d b3 0c f5 bd be f3 97 3e 5c 2d 22 bc
       0.11173535 -0.11965313 0.29678148 -0.00989851
0001e0 9c 56 04 3e 09 52 f3 3d 19 e0 60 3e 41 45 31 3e
       0.12923664 0.11880881 0.21960486 0.17311575
0001f0 8f 4b 95 bd 5d 91 f8 3d 7c bc ad bd fd 81 71 bb
       -0.07289802 0.12137101 -0.08483216 -0.003685116
000200 ad c8 ba 3d d2 4a 00 3e 1d ee 67 bb 2d d2 b7 bd
       0.09120307 0.12528542 -0.003538973 -0.08975635
000210 68 4e 94 3d d7 f9 02 bd eb 4c 29 3d e3 01 92 bd
       0.07241517 -0.031976547 0.04133312 -0.07129266
000220 2e 09 ae bd f1 cc a3 3d e8 94 c3 3d 26 40 0c bd
       -0.08497845 0.07998074 0.09549886 -0.034240864
000230 9c 17 04 3d 33 ff 40 3e 6d 0f e3 3d 38 91 48 3d
       0.03224908 0.18847351 0.110869266 0.048966616
000240 81 b5 1e bb 06 e1 aa 3d 14 d6 16 3a be f1 34 3e
       -0.0024217071 0.08343701 0.0005753946 0.17670342
000250 dd 56 aa 3d 08 02 d8 3d 76 13 34 3c c1 cd 63 3e
       0.08317349 0.105472624 0.010990968 0.22246458
000260 72 66 25 3e 80 a2 b6 3d d1 41 c7 3d 95 7f 7e 3e
       0.16152361 0.08917713 0.0972935 0.24853356
000270 c1 7f 22 3d 9a 47 92 bb f3 2a 84 bd 20 a4 df bd
       0.039672617 -0.004464102 -0.064535044 -0.10919976
000280 f4 db 3e 3e 54 df b9 3b b1 63 e5 bc 07 76 a3 3c
       0.18638593 0.0056723747 -0.028001638 0.01995374
000290 79 a2 19 bd ae eb 52 3e a4 26 3f 3e 60 7c d8 bc
       -0.03750846 0.20597717 0.18667084 -0.026426494
0002a0 a3 72 19 3e ba 56 a4 3d c9 65 f7 bc b8 46 03 be
       0.14985137 0.08024354 -0.030199902 -0.12819946
0002b0 5d 28 2e 3c cb f9 84 3d e2 68 6d 3c b4 78 3b 3d
       0.010629741 0.06492957 0.014490338 0.04576941
0002c0 bc ed 97 3d 4f 5e 80 3d 9f 4c f6 3c 38 3d 3f bd
       0.07418391 0.06267988 0.030065833 -0.046689242
0002d0 fb 41 be 3c f7 5d d7 3d 50 05 a3 bc 55 35 f0 3b
       0.023224821 0.10515969 -0.019899994 0.0073305764
0002e0 d4 a3 df 3d 69 7b 6c 3d 80 e0 8c 3d 52 2a 13 bd
       0.109199196 0.05773488 0.068787575 -0.03592903
0002f0 0d cb 09 bd 57 c7 f2 3d b5 0d e3 3d 0e 23 69 3e
       -0.03364091 0.11854427 0.11086599 0.22767279
000300 12 b8 0c 3e 12 23 ec bd ef ba 28 bd e1 cf f8 bd
       0.13742092 -0.11530127 -0.0411939 -0.12149025
000310 84 62 44 3e bd d6 48 bd 5b 65 8f bd de ac 48 bd
       0.19178206 -0.049032915 -0.07001754 -0.048992984
000320 ac 29 a9 bd 76 c9 a2 bb 25 05 6a bc 20 4e 8e 3b
       -0.082599014 -0.0049678637 -0.014283453 0.0043428093
000330 41 b4 60 3d 8f ab a9 3c e7 36 61 bc 1b 00 4f be
       0.054859404 0.020711688 -0.013746 -0.20214884
000340 18 81 37 3e e6 4a 67 bb 2e 9c 13 3e fd a9 0a 3e
       0.17920339 -0.0035292446 0.14415047 0.13541408
000350 f6 a9 b0 3d 83 2c ac 3d 23 73 98 3c 28 5d 48 bc
       0.086261675 0.084069274 0.018609589 -0.012229241
000360 ba fb 56 be 42 14 60 be 00 4d fc 3c 2f c0 21 3e
       -0.20994464 -0.21882728 0.030798435 0.15795968
000370 04 9a d5 3d 62 dc 3f bc 0d 21 c3 3d 11 af 35 be
       0.10429767 -0.011710258 0.09527788 -0.17742564
000380 a7 4c c3 3c aa 49 4f bb 60 5e 12 bd 83 4e 10 3d
       0.023840262 -0.00316296 -0.035734534 0.035231125
000390 93 bb e5 bd 5a e2 01 3d d3 e9 16 bd 5a 38 2b be
       -0.112174176 0.031710006 -0.036844086 -0.16720715
0003a0 8e 98 8d 3d 04 e0 74 3c d7 86 fa bd 58 54 40 3e
       0.06913863 0.014945988 -0.1223275 0.18782175
0003b0 e4 07 53 be 19 80 04 3e bc 16 1f 3d 45 e5 19 bc
       -0.20608479 0.1293949 0.03884004 -0.009393041
0003c0 72 3d 1d bd 91 d6 44 3c f2 cf 6f 3c c9 26 5d be
       -0.038388677 0.012014047 0.01463698 -0.21596827
0003d0 02 13 3b bc ab 55 93 bc 84 1b f2 3d d9 9e 8f bd
       -0.011418106 -0.017985186 0.118216544 -0.0701272
0003e0 e0 3d 85 bc 99 c7 06 be 5c a5 ab bc 71 e1 47 3d
       -0.016264856 -0.13162078 -0.020952873 0.048798982
0003f0 7d 3f 15 bd 9a cd 44 bd 6a a3 5f bc bd c3 cc bc
       -0.0364375 -0.04804764 -0.013649801 -0.024995679

gru.weight_hh_l0 f4 [192, 64]
000000 71 a4 1b 3d b6 9a ae 3d 8e b0 09 bd b1 40 c5 3d
       0.03799862 0.085256025 -0.03361564 0.096314795
000010 0b 50 fd 3d 63 67 6a be 4d 40 77 be be be 01 3e
       0.123687826 -0.22891001 -0.24145623 0.12670419
000020 5f 6f 92 3d b6 14 91 3d 41 0c 55 bd 7e 79 6d bd
       0.071501486 0.070840284 -0.05201364 -0.057977192
000030 ab 40 90 bd 5e ef de 3d d0 31 0c 3e eb 5a f5 bb
       -0.070435844 0.108854994 0.13690877 -0.007487645
000040 bb 4f d6 bd 26 61 c2 bd 1c 0c 26 be 8f 6d b8 bd
       -0.10464426 -0.09491186 -0.16215557 -0.09005272
000050 54 f4 cd 3d f0 82 b3 3c e7 5a 1f be c5 95 9e bc
       0.100563675 0.021913022 -0.1556202 -0.019358525
000060 58 c1 6d bd 16 7b ee bd 03 35 10 3d 7a 48 0a 3e
       -0.058045715 -0.116445705 0.035206806 0.1350421
000070 b0 d4 06 bd 61 91 62 bd 8b c5 e2 3c a0 b4 1d 3e
       -0.03291768 -0.055314425 0.027682086 0.15400934
000080 1b 0d 84 bd b5 80 25 3e d6 e7 0a 3d 0b 0e 11 bd
       -0.06447812 0.16162379 0.033912502 -0.035413783
000090 db 9b af 3d ba 75 37 3d 97 be 96 3d 80 7d 50 bd
       0.08574649 0.044790007 0.07360571 -0.050900936
0000a0 23 6b 7a 3d dd d1 08 3d e7 14 12 3d f4 4b c2 bd
       0.06113733 0.033403266 0.035664465 -0.09487143
0000b0 6c 6f a9 3d 23 e4 02 3d 7d af 0f 3e a8 3e 22 bd
       0.08273205 0.03195585 0.14031787 -0.039610535
0000c0 33 95 ee 3c 4b 9a 26 bd d5 3b 84 bd 39 dc 15 3e
       0.029123878 -0.04067449 -0.064567246 0.1463479
0000d0 f1 f1 bd bd 1d de 6e 3d df 7d bd 3d dc f9 f8 bd
       -0.09274662 0.058317292 0.09252524 -0.12157032
0000e0 b3 51 13 3e 54 36 d9 3d a2 fb 30 be f9 db 2b 3d
       0.14386635 0.106060654 -0.1728349 0.04195783
0000f0 e1 ca 03 be 40 75 23 bc 0e 9c 15 3d 46 25 8d 3e
       -0.12870361 -0.009976685 0.03652578 0.275675
000100 ec 71 bd bd 52 19 04 3d 4b 1f 95 bc 6a 69 03 3b
       -0.092502445 0.03225071 -0.018203398 0.0020051845
000110 bf 5e c7 bd 61 85 6b 3d 1c c8 5b bd 4f d8 de 3b
       -0.09734868 0.057500247 -0.053657636 0.0068006883
000120 3d 55 d3 bd 9d cf ab bd 06 1f 1a 3e 5f f3 3d 3e
       -0.10318992 -0.083892085 0.15050897 0.1854987
000130 2d 1d b6 bc 61 46 fd bd cd c0 b8 bd 77 67 4d bd
       -0.022230709 -0.12366939 -0.09021149 -0.0501475
000140 59 ce 49 be 6e e1 38 3d e1 6f 0c 3d 8a 9c 49 be
       -0.19707622 0.04513686 0.034286384 -0.19688621
000150 4d a6 28 be 6b bb 62 bd 6d 8b 95 ba 01 92 05 be
       -0.16469689 -0.055354517 -0.001140935 -0.13043977
000160 f6 0d 19 bd 8e d7 49 3d 26 52 46 bb 6c 09 e0 bd
       -0.03736683 0.049277835 -0.0030261367 -0.10939297
000170 62 bd 17 3e cb 0c e9 3d 09 05 9b 3c 0f 55 59 bd
       0.14818338 0.11379393 0.0189233 -0.053059634
000180 91 c7 aa bb bf 7c ed 3c 11 46 1a 3e e7 4c b8 3d
       -0.0052117785 0.028990148 0.1506579 0.08999043
000190 56 41 92 bc 44 55 7f 3d 25 3d 0f 3e 78 2d 6b bd
       -0.01785342 0.062337175 0.13988169 -0.05741641
0001a0 a6 aa 69 be 98 2d ba 3d 84 7f 89 bc 19 6f ac bd
       -0.22819003 0.090907276 -0.016784437 -0.08419628
0001b0 11 a1 2e bd 6a 34 9a bc 16 44 0f 3d 43 7f 1d 3e
       -0.042634074 -0.018823821 0.03497704 0.15380578
0001c0 22 55 06 bb 5b 6f bc bd af 4f e1 bd ba 0a ed bc
       -0.002049752 -0.09200927 -0.110015266 -0.028935779
0001d0 33 20 19 3e 50 e2 11 be ad 6f 6e bd ad 18 aa 3b
       0.1495369 -0.14246488 -0.05821197 0.00519093
0001e0 ef 5f 3e 3d 20 2f 4a 3d 51 ce a1 3a 04 23 3b be
       0.04647821 0.04936135 0.0012344812 -0.18275076
0001f0 b9 75 ec 3d c0 27 a0 3c 4b 8a e1 3d 6d 78 b9 3b
       0.11545891 0.019550204 0.110127054 0.005660108
000200 56 a0 e7 bd d3 30 4d 3d cc 65 31 3e b9 5e 59 3d
       -0.113098785 0.05009539 0.17323989 0.05306885
000210 da 97 20 bd 87 66 db 3d 89 91 f3 bc 4c 4b b0 bc
       -0.039207317 0.10712915 -0.029732483 -0.02152028
000220 1c 6a 55 bd fa ae 8f 3d 28 35 70 bd 8d 31 60 bd
       -0.052103147 0.07015796 -0.058644444 -0.054734755
000230 69 ab d0 3d 03 a4 06 be 09 99 75 bd 84 8b 0b 3e
       0.10188944 -0.13148503 -0.0599604 0.1362744
000240 36 8e 35 3d b5 6b af 3d 6a ce be bd c4 27 2e bd
       0.044325076 0.08565465 -0.09316714 -0.042518392
000250 ad b3 8c 3d 72 3f 99 3d 1d 3b 37 3e 32 e9 50 bd
       0.06870208 0.07482804 0.17893644 -0.051003642
000260 50 e7 10 3e 6a ba 51 bd 66 43 eb 3c ad 79 84 bd
       0.14150739 -0.05120317 0.028718662 -0.0646852
000270 e8 07 dd 3d ea 01 46 3d 6f 37 86 3d 70 08 d4 bd
       0.107925236 0.04834167 0.06553542 -0.10353172
000280 66 d1 aa bd 3e ff 1c be 0c 59 8d bd 35 6c 9d 3d
       -0.08340721 -0.15331742 -0.0690175 0.076866545
000290 d6 fb c2 bd e8 0a 9e bd bc c4 c1 3d 1d aa f5 bd
       -0.0952069 -0.07716924 0.09461352 -0.11995337
0002a0 c2 9e b4 3d e5 13 af 3d 6a a3 9d bd 49 68 31 3d
       0.08819343 0.085487165 -0.076971844 0.043312345
0002b0 f5 d4 86 3d 40 20 e0 3c 97 a4 21 be 43 29 09 3e
       0.06583587 0.027359128 -0.15785442 0.13394646
0002c0 23 65 bd bb 8f 74 04 be 10 ed 62 bd ae 2c 20 3e
       -0.0057798787 -0.12935089 -0.05540186 0.15642044
0002d0 80 bf 96 3d a8 77 eb bd ec 9c 3d bd a2 6d 56 be
       0.073607445 -0.11497432 -0.04629223 -0.20940259
0002e0 a5 b4 05 be 36 15 db 3c 47 f5 e8 3d 69 9b ba bc
       -0.13057192 0.026743513 0.11374908 -0.022779183
0002f0 03 7f 80 be 6b bc 33 3e 72 88 42 3c ef d6 c5 3c
       -0.25096902 0.17552345 0.011873351 0.02415034
000300 85 83 1b be 64 13 44 be 7a 92 34 bd ef 9c 63 3e
       -0.1518689 -0.19148022 -0.044085003 0.22227834
000310 d9 c1 69 3c 52 6a 84 3d ae 58 20 3c 6a 14 16 3b
       0.014267408 0.064655915 0.009786768 0.0022900351
000320 71 3b 83 bd a5 ed a2 3b e1 00 f8 3c f0 63 a5 bd
       -0.06407822 0.004972177 0.030273857 -0.08075702
000330 51 f6 2f 3b dc fb d3 3d 08 55 51 3d 88 f3 be 3d
       0.0026849697 0.10350773 0.051106483 0.09323794
000340 8f f6 76 bc ed 75 8f 3c 57 95 07 be db d4 85 bd
       -0.015073433 0.017512286 -0.13240562 -0.065347396
000350 ac c6 2a be b0 25 53 bd ed 18 91 3d 74 c3 79 3d
       -0.1667735 -0.051549613 0.07084832 0.060977414
000360 f5 04 2d bc fa 02 12 3e 17 e4 15 3d 82 37 42 3d
       -0.010560264 0.14258948 0.036594477 0.047416218
000370 2f f3 f5 bc 6a 34 16 3e 1c 98 f6 3c 2d 9f 19 bc
       -0.030023186 0.14668432 0.030101828 -0.009376329
000380 50 12 10 3d 70 90 03 3e 6d f7 28 3e 45 a3 d3 bd
       0.035173714 0.12848067 0.16500635 -0.103338756
000390 ab 33 17 3d 06 c0 48 3d ec 35 00 3b 79 85 59 bd
       0.03691451 0.049011253 0.001956339 -0.053105805
0003a0 71 49 90 bc be 8a 1d be bb 82 ae bc 2b 52 17 3d
       -0.017613145 -0.15384957 -0.021302572 0.036943596
0003b0 4b 57 0e 3e f0 bd b9 bd 10 8c a9 ba a7 a9 39 3c
       0.13900487 -0.09069431 -0.0012935419 0.011331952
0003c0 87 cd e7 3c 44 ff 4a be 45 6b 55 bd 45 05 e1 3d
       0.028296245 -0.19823939 -0.052104253 0.10987333
0003d0 d7 7c d4 bd 6b bc f3 bd 18 3d b0 bd 8b 7a 78 bd
       -0.10375374 -0.11901172 -0.08605403 -0.06066374
0003e0 22 5d 05 3d 59 8e 16 3e c3 d4 25 bc c3 b5 c3 3d
       0.03255952 0.14702739 -0.010121527 0.09556153
0003f0 32 27 cd 3d 46 97 6e bd 35 f9 31 3e b2 3e 93 bd
       0.100172415 -0.058249734 0.17380221 -0.071896926

gru.bias_ih_l0 f4 [192]
000000 38 b3 97 3d 81 cf f3 3d 92 db 96 3d de 3f 16 3d
       0.0740723 0.119048126 0.073660985 0.036682002
000010 20 31 07 3e 09 fe 37 3d 61 f1 26 3e 89 b0 8a bc
       0.13202333 0.04492 0.16303016 -0.016929882
000020 85 0a e6 3d d0 7d 8f bd 71 11 87 bc 70 95 c2 3d
       0.11232475 -0.07006419 -0.016487809 0.09501159
000030 0e 3c 2a 3e 54 30 1e 3e ac 9f 97 3d f5 60 90 bd
       0.16624472 0.15448123 0.07403502 -0.07049743
000040 03 fd 04 3e 2b d5 20 bd 93 5b 56 bd aa c6 b3 bd
       0.12987141 -0.039265793 -0.052333426 -0.087781265
000050 76 51 fc 3d 23 e7 8c bc b6 10 42 3e 0a 40 82 3e
       0.12320225 -0.017200058 0.18951687 0.25439483
000060 2a 8e 05 bb c0 5c 0e 3e 7a 55 c6 3d 91 6b 1b 3e
       -0.0020378926 0.13902569 0.09684272 0.15177752
000070 dd 4e 3d bd 22 be 04 3d 28 d0 3e 3e 7f 92 53 3d
       -0.046217788 0.032407887 0.18634093 0.05165338
000080 fe 2c 85 3d 07 92 63 bc b3 36 6a 3e e8 fe 55 3e
       0.06502722 -0.013889796 0.22872429 0.2089802
000090 a9 40 1d 3d 3c d0 f1 3d 6d 23 93 3c 3c 3f dc 3b
       0.038391743 0.11807296 0.017961228 0.0067214053
0000a0 f3 db 29 3e ee 54 db 3b 19 14 8b bc cf 16 1f 3c
       0.1658781 0.006693474 -0.016977357 0.009710028
0000b0 8f 40 49 bc 18 8f 48 3d f5 5f c3 3d ab 2d 21 3e
       -0.012283458 0.04896459 0.09539787 0.15740077
0000c0 87 bf 21 bd 58 ca 85 bd fc b1 4f 3e b8 c4 aa 3c
       -0.039489295 -0.06532735 0.2028274 0.020845756
0000d0 1c 80 53 3d 5b fc 1d bd 31 96 31 3e 3a 6a 34 3e
       0.051635846 -0.038570743 0.1734245 0.17618647
0000e0 ec aa bc 3d a7 dd 1e bd 2b 45 62 bd fb 5b 6f bd
       0.09212288 -0.038785603 -0.055241745 -0.05843733
0000f0 98 e2 f1 3d e5 d6 97 3b e2 ef 07 3c 02 a5 17 3d
       0.118107975 0.0046337717 0.008296939 0.037022598
000100 57 79 ab bc 59 c7 3f 3d 8a 7c 13 be ac f4 c1 bd
       -0.020931883 0.046820972 -0.14402977 -0.094704956
000110 61 f9 cc 3a 66 c5 5e bd ef 06 da bd ba 75 a0 3c
       0.0015638286 -0.054387473 -0.10645854 0.019587386
000120 2f b0 43 bb b7 88 f9 bb 9c 25 58 3d b0 c6 b2 3d
       -0.0029859652 -0.0076151746 0.052770242 0.08729303
000130 4c 72 0a 3d 5e c2 c2 bb 2d e6 1b 3e de 46 00 3e
       0.03380041 -0.0059435805 0.15224524 0.12527034
000140 65 cd 1a be a7 d6 9c bd 1b 53 3f 3b 78 2d 0a 3c
       -0.15117414 -0.07658129 0.0029193822 0.008433692
000150 5e c8 13 3d 5f f2 6f bc fb 8f f2 bd e1 aa 66 be
       0.036079757 -0.014645188 -0.11843868 -0.22526123
000160 ca 88 16 3d 5c d4 b4 bd b2 b8 98 bd 9e 0d 2e be
       0.036751546 -0.08829567 -0.07457103 -0.16997382
000170 7a a9 e0 bd 7e a9 9d 3d fa 90 bf bd 92 b6 2b 3b
       -0.10969825 0.07698344 -0.09353824 0.002620135
000180 92 0f c3 3d 58 ab f5 bd c0 d7 12 3d d8 0d 45 3e
       0.09524454 -0.11995572 0.035850286 0.19243562
000190 86 0e c6 3d 69 cc df bd 85 f5 92 bd c1 5c f2 bd
       0.09670739 -0.1092766 -0.071757354 -0.11834098
0001a0 9a eb ad 3a 8e f8 64 bc f1 ac 54 bb ba 32 78 bd
       0.0013269067 -0.013975276 -0.0032451714 -0.06059525
0001b0 59 aa fa bd 37 94 d2 bd 06 55 5b bb 00 a4 a5 bd
       -0.122395225 -0.10282176 -0.0033467426 -0.08087921
0001c0 90 cc 52 bd a7 61 07 be 7b cd e2 3d 2d 89 27 3d
       -0.051464617 -0.13220845 0.110743485 0.040902305
0001d0 2a 04 c6 3d 9b 99 9a 3d 5b 54 42 bd f5 af 0a be
       0.09668763 0.07548829 -0.04744373 -0.13543685
0001e0 a2 ff 83 bc cb 7b ae bc b8 c1 89 3d ce 3b 3c be
       -0.016113106 -0.021299263 0.06726402 -0.18382189
0001f0 45 45 4a bd de 18 46 bd 5e 7f 03 3d 29 7d 4a bd
       -0.049382467 -0.04836356 0.03210389 -0.04943577
000200 6c 15 9d 3d 8f 17 17 bd 81 6f 3f 3e 0f 0f 03 bd
       0.076701015 -0.0368877 0.18694879 -0.031996783
000210 4f e4 be bd 9a d6 31 be 37 d0 fe bd 8e 3f 78 be
       -0.0932089 -0.1736702 -0.124420576 -0.24242994
000220 56 c5 f4 3d 45 c9 33 bd ff 51 7f bd 3d 6e 09 be
       0.11951701 -0.043893117 -0.062334057 -0.13420959
000230 12 c1 4a 3c 96 b1 d0 3d a1 ad 0d bc 67 9a dc 3d
       0.012375133 0.10190122 -0.008647353 0.107716374
000240 35 84 80 be db a2 9f 3c 65 ee 9a bd 02 93 82 bd
       -0.25100866 0.019486835 -0.075650014 -0.06375696
000250 99 4f a1 bd e7 72 29 3e 97 dc 9d bd 07 8d 30 bb
       -0.0787651 0.16547738 -0.0770809 -0.0026939528
000260 3a 93 f3 bd 33 20 1e 3c 10 c1 56 be b0 27 44 3d
       -0.118933156 0.009651232 -0.20972085 0.04788941
000270 32 51 18 3e 89 20 8b 3d 58 cd b1 bc 56 f7 69 be
       0.14874724 0.06793315 -0.02170436 -0.22848257
000280 7f 7c f6 bc 0e 4e f4 3d 7e ed 4e bc ed 28 6e 3d
       -0.030088661 0.1192895 -0.012629865 0.0581445
000290 be cf 26 bc d0 2a 0f be 1b 53 2f 3e 19 f4 a9 bd
       -0.010181366 -0.13981175 0.17121546 -0.08298511
0002a0 a2 46 d4 3d ea 3e ae 3d fa 8e dc bd c8 ed d8 bc
       0.10365035 0.08508094 -0.10769458 -0.02648057
0002b0 1e 09 98 3d bb 82 04 3e ac 17 6b bc ca 52 ea 3d
       0.07423614 0.12940495 -0.0143489055 0.11441572
0002c0 b7 7a 4e 3d 15 c4 17 3e 6d 69 4c bd 3c 08 d8 3d
       0.05041 0.14820893 -0.04990523 0.105484456
0002d0 3e 06 59 be 76 ba c3 ba a6 2e 47 3d 2f df b4 bd
       -0.21193787 -0.0014932889 0.04862847 -0.088316314
0002e0 b5 8c ff 3c b0 86 77 bd c3 4f 72 bd c7 fc 3e bd
       0.031195024 -0.060431182 -0.059158098 -0.046627786
0002f0 01 c1 62 be 58 4e 76 3d 94 37 bc bd ce 56 89 bd
       -0.22143938 0.06013331 -0.09190288 -0.0670601

gru.bias_hh_l0 f4 [192]
000000 a7 d8 17 3e 9c 9f f9 bc 3e fe 12 3e 20 ac 9f 3d
       0.1482874 -0.030471615 0.14354798 0.07796502
000010 70 fa b7 3d 35 cc e6 3d c7 52 aa 3d c9 2d 04 3e
       0.08983314 0.11269418 0.0831657 0.1290809
000020 aa a1 8d 3d 24 21 21 bd 5d 80 91 bc 1d b0 39 3e
       0.069156006 -0.039338246 -0.017761404 0.18133588
000030 35 55 25 3e e8 5b ef 3d 01 20 34 bc 53 c9 03 3e
       0.16145785 0.116874516 -0.010993958 0.12869768
000040 62 05 ea 3d 9c 21 a7 bd c0 1a 55 bd 4a 32 22 3d
       0.11426808 -0.08160707 -0.052027464 0.03959874
000050 12 eb 2e 3e fc bc 2b bd 6e cc 3a 3e 1c b5 1e 3e
       0.1708186 -0.041928276 0.18242046 0.15498775
000060 42 0f c4 3d b1 4c 76 3d 62 24 11 3e 2f 8f 2a bc
       0.09573223 0.060131732 0.14174035 -0.010410114
000070 60 19 2d 3d ec 38 a8 bd dc b3 10 3e 60 d1 e7 3d
       0.042260528 -0.08213982 0.14131111 0.11319232
000080 c8 ce a1 3d 8b c3 00 bc 0a ba 8e 3e a8 d8 6c 3e
       0.079007685 -0.007859121 0.27876312 0.23129523
000090 92 79 74 3b 23 4a d4 3c 17 25 71 3d 23 21 3b 3e
       0.0037303907 0.025914257 0.058873262 0.1827436
0000a0 5a d3 80 3e c4 80 36 3e 09 08 09 3e 45 cb 18 3e
       0.25161248 0.17822558 0.13381971 0.14921291
0000b0 53 2d 1c 3d b2 73 73 bc 58 17 f3 3c 8e 6c 02 3e
       0.038129162 -0.014859127 0.029674217 0.12736723
0000c0 b9 da e4 3c 6a 95 ee 3c 25 fd 55 3e 04 ae 28 3e
       0.027936326 0.02912398 0.20897348 0.16472632
0000d0 c9 a7 01 3c 8d 90 aa bd 46 29 57 bc 51 54 9b 3d
       0.007913538 -0.08328352 -0.013132399 0.075844415
0000e0 93 86 e3 bb b7 b9 9e bd 04 23 5d bd 65 b6 b9 bc
       -0.0069435327 -0.07750266 -0.05398847 -0.02266998
0000f0 01 fd 34 3e 50 8d 25 bd 64 58 e9 3d ff aa 74 3d
       0.17674638 -0.04041797 0.11393812 0.059733387
000100 03 67 07 bd 8d f3 e5 3d 91 87 96 bc 69 24 77 3d
       -0.033057224 0.11228094 -0.01837519 0.060337458
000110 8c da 56 3d fb b0 1d 3d a3 f5 7e bd eb a6 9d bd
       0.052454516 0.03849886 -0.062245976 -0.07697853
000120 8c eb d0 bd 3d dc 80 bd 74 22 17 3e 7f b0 a4 3b
       -0.10201177 -0.06292007 0.14759237 0.005025923
000130 d8 bb 15 3b 16 1b 7b 3c 1e 70 d9 bc 81 e8 d0 3d
       0.002284756 0.015326282 -0.02654272 0.102005966
000140 ef a4 54 bc 6f 0a 31 be 21 b0 8b 3d 9a 04 35 3d
       -0.012978776 -0.17289136 0.06820703 0.04419384
000150 ed 99 7a bd ee 17 e5 bd 31 9c 5e bd f5 70 a1 bd
       -0.06118195 -0.11186205 -0.054348174 -0.07882873
000160 c6 4e 98 3d 02 b2 11 3d a3 d1 9d 3c 94 22 dc bb
       0.074369 0.035570152 0.019265002 -0.006717989
000170 02 a3 e5 bb fb 57 bb 3c a6 16 a9 3d 07 12 b2 bd
       -0.0070079574 0.0228691 0.08256273 -0.08694845
000180 f2 ee 45 3e 85 e2 52 be 3d bd 65 bd 7a d2 4b 3d
       0.19329432 -0.20594223 -0.056088675 0.049761273
000190 63 c1 e2 bd 90 43 a7 bc af 32 6c bc 22 5a 3d bc
       -0.11072042 -0.020417958 -0.014416381 -0.011557134
0001a0 11 20 09 3d c7 e0 46 bd b9 7b 69 bd 77 5d c7 bc
       0.033477847 -0.048554208 -0.057002757 -0.02433656
0001b0 57 2b 10 be 07 cb 44 be 3d 67 40 bd e8 3d 09 be
       -0.14079033 -0.19218074 -0.046973456 -0.13402522
0001c0 7e bc cb bd 0e 0c 39 bc fd 45 23 3b 79 e2 b3 3a
       -0.099480614 -0.011294378 0.0024913542 0.001372411
0001d0 4e da 1d 3d b1 25 ae 3d e3 cf 1c bd 6c e0 03 bd
       0.03853827 0.08503283 -0.038284194 -0.032196447
0001e0 ed b2 d4 bd 2a 76 d1 3d c4 61 8c 3b db 4d 69 be
       -0.1038569 0.10227616 0.0042841155 -0.22783606
0001f0 29 75 c3 3d a1 92 92 3d 3e 88 8e bd b5 da 05 bd
       0.09543831 0.071568735 -0.0695958 -0.03267928
000200 5d 57 15 3c c0 0e bb bd 76 46 22 3e 81 a1 89 ba
       0.009115067 -0.09133673 0.15847191 -0.0010500402
000210 bc df 8a bd a9 3d 69 3d 8c 06 b6 bd d4 f8 fd bd
       -0.06780955 0.05694357 -0.088879675 -0.12400976
000220 d2 33 18 3e 6a a3 ed 39 93 6c 6f bd 21 a8 0c be
       0.14863518 0.00045325916 -0.058453154 -0.13736011
000230 9a 20 86 bc dd 69 2c 3e b5 a4 b6 3d 03 22 3b 3b
       -0.016372968 0.16837259 0.08918134 0.0028554208
000240 85 28 a4 bd d5 ac e2 3d 0b 3a 0c bd f7 27 56 b7
       -0.08015541 0.11068121 -0.03423504 -1.2764699e-05
000250 ed 65 75 bc 05 f2 07 3e 53 26 1d bd e4 33 bf 3c
       -0.014977914 0.13275917 -0.038366627 0.023340173
000260 12 86 b4 3b 7c 30 64 3e 2a 3f 07 be 2e 9d 84 bd
       0.0055091465 0.2228412 -0.13207689 -0.06475292
000270 64 00 6e 3b ee 48 dd bd 77 0f 36 be f6 38 f1 bd
       0.003631615 -0.10804926 -0.17779337 -0.117784426
000280 dc 99 09 3e bb d8 68 3d ec 84 45 3d cc 62 c1 bd
       0.13437599 0.056847315 0.048222467 -0.09442672
000290 44 83 ad bb 7c 7d 77 bd 05 3c 29 3c 14 44 9f 3d
       -0.005295189 -0.060422406 0.010329251 0.07776657
0002a0 10 ac d2 3d b5 1d cc bc be 69 5d be 8a 5a 63 bd
       0.102867246 -0.02491651 -0.21622369 -0.055506267
0002b0 7e 3f b8 3d 55 f0 3b 3e 14 43 92 bd 2e 72 a9 bd
       0.08996485 0.18353398 -0.071417004 -0.08273731
0002c0 1f d4 d3 39 e0 83 4e bc 43 c0 8e bd 85 48 21 bc
       0.000404031 -0.012604684 -0.06970265 -0.00984395
0002d0 55 eb 0e be c0 b3 55 3e 9f f3 6f 3d c9 fa 23 be
       -0.1395696 0.2086935 0.058581945 -0.16013636
0002e0 e4 60 96 3d 52 7f 67 bb 6d cc ff 3d 31 f5 5c bc
       0.07342699 -0.0035323692 0.12490163 -0.013486193
0002f0 26 74 35 be 0a 41 f0 3d 4b 71 fa bd 29 85 9d bc
       -0.17720088 0.11731155 -0.1222864 -0.019228535

fc.0.weight f4 [32, 64]
000000 3b 69 e9 3d 35 9c c7 3d fa 90 80 3d e4 dd 81 3e
       0.11397024 0.09746591 0.06277652 0.25364602
000010 47 5a b8 bd 8c 5e 1e be 1d 54 26 3e 30 d4 16 be
       -0.09001594 -0.15465754 0.16243024 -0.1472938
000020 66 05 70 3e 8c f5 da bd 43 d4 13 3e fe 87 99 3d
       0.2343956 -0.106913656 0.1443644 0.074966416
000030 62 44 34 3e a5 2e 45 be 35 bf 30 3d d1 0c f7 3c
       0.17604211 -0.19256075 0.0431511 0.030157479
000040 3e cc 12 be bd b3 b9 bc 55 20 38 bd 06 71 ae 3d
       -0.14335725 -0.022668714 -0.04495271 0.08517651
000050 c4 07 20 3d 61 fd 8d 3d 24 7d 31 3e fa 98 4d be
       0.039069906 0.06933094 0.17332894 -0.20077887
000060 8d 00 c9 bc 62 4a 82 bd f4 3d 10 3d 65 7c 01 3e
       -0.024536395 -0.06361844 0.035215333 0.12645109
000070 e9 4a 7a be 5e ae a0 3d cc f5 74 ba aa dc 6f 3c
       -0.24442638 0.07845758 -0.0009344488 0.014640013
000080 24 5a ac 3d 53 e6 9d be 22 e4 11 3d b5 4d 77 3e
       0.084156305 -0.30839786 0.035617955 0.24150737
000090 3f 12 dd bc 5e 8c 06 be 96 04 de 3c cb 0a a3 be
       -0.02698624 -0.13139483 0.027101796 -0.31844172
0000a0 f9 cd 84 bd 7c e5 43 3e 24 08 88 bd 17 0c c0 bd
       -0.06484599 0.1913051 -0.06642178 -0.09377306
0000b0 e1 99 13 3e b4 d5 2b 3e 30 e5 17 3e 26 af 64 be
       0.14414169 0.1678074 0.14833522 -0.22332439
0000c0 9b 23 70 3e 36 3c 7f 3e 73 a9 23 3d 96 32 2a 3e
       0.23451082 0.24925312 0.03995652 0.1662086
0000d0 7e 8e 3b bd 47 bc fd 3d 39 10 48 3e c0 23 9a 3e
       -0.045790188 0.12389427 0.19537438 0.301054
0000e0 71 8d 3e 3e d7 8a d2 3d d7 38 a8 bd 28 07 33 be
       0.18608643 0.10280388 -0.08213966 -0.17483199
0000f0 a9 f8 3a 3e ae c1 90 bc 53 2b b0 3d 3c f3 3f 3e
       0.18258919 -0.017670479 0.086020134 0.1874513
000100 c7 88 70 3e 95 f4 48 3c 0a 38 64 3e 6c c7 5d 3e
       0.23489676 0.012265344 0.22287002 0.21658105
000110 a9 af 8e 3b 77 c9 42 3d ef 40 5d 3e 45 89 b1 be
       0.0043544364 0.047555413 0.21606801 -0.3467504
000120 f9 2b 7a 3e cb d2 1b bd 58 cf 5b 3d 93 b6 42 3e
       0.24430837 -0.038042825 0.053664535 0.19014959
000130 77 fe 95 3c 3e fa 37 be 96 f1 c4 3d 4f 96 32 3d
       0.018309815 -0.17966554 0.09616391 0.043600377
000140 6f f9 60 be 5c 46 cf 3d 1c fe 0c bd cc 8a 31 3d
       -0.21970151 0.10120842 -0.034422025 0.043345258
000150 be 1f 05 be ea 34 75 3e 2a ba 8e 3e aa 8d a3 be
       -0.1300039 0.23945966 0.27876407 -0.3194402
000160 98 87 34 be 96 26 86 3d c7 06 3f 3e 97 22 26 3e
       -0.1762985 0.065503284 0.18654929 0.16224132
000170 6e 85 9a bd ec fe 20 3e e6 75 65 3c 9c 8f ae bd
       -0.07544981 0.15722245 0.01400516 -0.08523485
000180 da d6 03 3e a9 b3 1e be dc 5c 1c 3e d3 9a 0b 3e
       0.12874928 -0.15498222 0.15269798 0.1363328
000190 0f 59 1d bd f6 04 1f be dc 16 85 3d 53 b9 71 be
       -0.03841501 -0.15529236 0.06498501 -0.23605852
0001a0 ba 93 8e bc b6 51 8a 3e fa e1 ce 3c 12 ee a8 3d
       -0.017404426 0.27015465 0.025254238 0.08248533
0001b0 53 9d 74 3e e9 49 14 3d 5a f5 31 bd 31 2a e6 bd
       0.2388814 0.0362033 -0.043446876 -0.11238516
0001c0 96 4e 0b 3e ec 30 17 3e 38 81 a0 bd b3 74 4e bd
       0.13604197 0.14764756 -0.078371465 -0.05040426
0001d0 6a 05 70 be f7 b8 45 3e 31 26 fd bc 83 16 48 3e
       -0.23439565 0.1930884 -0.030902 0.19539838
0001e0 24 9e 3c 3e b2 24 59 3e e2 7c 33 bc a3 f4 1b be
       0.18419701 0.21205404 -0.010955067 -0.1523004
0001f0 25 6e 16 3e e5 c5 e1 bd 8d b1 0a 3d 48 34 73 3e
       0.14690454 -0.110240735 0.033860732 0.23750412
000200 43 20 f1 3c b9 85 74 bd 4f f9 26 3d ad 13 6c 3e
       0.029434329 -0.05969784 0.040765103 0.2305438
000210 1c db 40 bd 55 fe 08 3d 69 55 5f 3d ae f1 1b be
       -0.04708396 0.033445675 0.054524813 -0.15228912
000220 a7 87 31 3e cf 86 bb bd f5 a6 24 3d 78 7a e1 3d
       0.17336904 -0.09156572 0.040198285 0.11009687
000230 69 8f 8f bc e0 fa b4 bc a1 da a7 3d f0 bf 4a be
       -0.017524438 -0.022092283 0.08195997 -0.19799781
000240 cc 34 10 be f4 ed 48 3e d1 e4 e4 3d 91 19 d9 3c
       -0.1408264 0.19622022 0.11176456 0.026501449
000250 4b a2 3b bd 66 b7 90 3c 9f ff 4a 3e ff 20 e2 bd
       -0.04580907 0.017665576 0.19824074 -0.1104145
000260 1a 41 55 3d 72 22 a2 bd de 7a 98 bb 08 82 36 3e
       0.05206404 -0.07916726 -0.004653319 0.1782304
000270 75 79 72 3d 6f 64 87 bc 05 22 eb 3c 48 3d 36 be
       0.05919786 -0.016527383 0.028702745 -0.17796814
000280 da 82 65 3e 3a f7 56 be d6 bd 34 3b fe 5e 5e 3e
       0.22413197 -0.20992747 0.0027578971 0.21715924
000290 86 41 d4 3d c9 83 92 bd 60 47 75 3d a5 3a 83 be
       0.1036406 -0.07154042 0.05988252 -0.2563068
0002a0 b3 e2 30 3d 9e 21 bb 3d 49 54 ae bd 06 7d 1d 3d
       0.043184947 0.09137271 -0.0851217 0.03844931
0002b0 29 a8 70 3d 35 63 3f 3d 0f 1b f0 3d 31 63 2e bd
       0.05875412 0.04672547 0.11723911 -0.042575065
0002c0 7f 5f 2f 3e bb 41 78 3e 4f 45 fa 3d 14 b0 00 3e
       0.17126273 0.24243824 0.12220251 0.12567168
0002d0 b4 50 54 be 09 b7 39 3e 04 6c 1a bb c2 dd a4 3d
       -0.20733911 0.18136229 -0.0023562917 0.080501094
0002e0 4a 55 c0 bd 9b f1 60 bd 78 3d 66 be f4 44 22 be
       -0.093912676 -0.054917913 -0.22484386 -0.15846616
0002f0 c5 66 25 3d fb 71 ac 3d 7c 47 88 3c 7d 4c 71 3e
       0.04038121 0.084201775 0.016635649 0.23564334
000300 7a 05 0b be 9b 05 f8 bd 84 8e 97 3d d3 d9 08 be
       -0.13576308 -0.12110444 0.074002296 -0.13364343
000310 68 aa 38 bb 2b a0 8a 3e 54 46 83 bd 2c 02 ab 3e
       -0.0028177742 0.27075323 -0.064098984 0.33400095
000320 1e 36 46 3d 85 89 8c bc ca 86 ab 3d 68 9c c6 3d
       0.048391454 -0.017155418 0.08375318 0.09697801
000330 05 f8 6c bd 5a 74 ad 3e 5d ba 5e 3d 5f c2 0e 3e
       -0.057853717 0.33877832 0.05437695 0.13941334
000340 65 48 53 3e 8a ba a6 3d 3a 23 bf 3c 7e 30 90 3d
       0.20633085 0.08141048 0.023332227 0.07040499
000350 f8 38 c3 bc 7d a8 cb bd ff e3 32 3d 03 62 7a 3e
       -0.023830876 -0.09944246 0.043674465 0.24451451
000360 2f 80 63 3e 74 af f4 bc a8 e0 73 bd 3c 0b ea bc
       0.22216867 -0.029868819 -0.05954042 -0.02856981
000370 8a 9f 1b 3e a2 c7 0c 3e 7c 28 10 3e db fd 2d 3e
       0.15197578 0.13748029 0.14077944 0.1699137
000380 f4 68 ec bd d4 b7 8a 3e 63 21 98 3d de eb 72 3d
       -0.11543456 0.27093375 0.07428243 0.05930697
000390 d3 5d bc 3d 3b bb df bc ca 47 d5 bd 25 f5 4c 3e
       0.09197583 -0.027310958 -0.10414083 0.2001539
0003a0 0d 20 78 3d bf 20 c2 bd 49 e8 ce 3c c3 0e 3a 3e
       0.06057744 -0.09478902 0.025257247 0.18169694
0003b0 b4 31 bf bd 1a 77 05 3d 9f 26 02 3e 0e 00 53 3e
       -0.09335652 0.032584287 0.12710045 0.2060549
0003c0 f7 1b a0 bd 9a 6f 7a bd 4f 5b ad 3c 29 26 c2 bd
       -0.07817834 -0.061141588 0.021161703 -0.09479935
0003d0 93 97 30 3e 1a 4e 60 3c e5 7c 51 3c 54 df ba bb
       0.17245321 0.013690496 0.012786125 -0.0057028923
0003e0 20 5b 5d bc 60 5b 80 3d 51 ea 63 3e 7b f6 10 3c
       -0.013510495 0.062674284 0.22257353 0.008847828
0003f0 dd 51 6e bd 76 4b c1 bc f0 05 bd 3d 08 2c 7d bd
       -0.05818354 -0.023595553 0.09229648 -0.06180957

fc.0.bias f4 [32]
000000 35 a4 b0 3e f5 67 58 3e ba d1 a4 3e e9 d9 30 be
       0.3450028 0.21133406 0.3219126 -0.17270626
000010 db 89 60 3e 29 cb a2 bd 96 29 4b 3e 4d 43 96 bc
       0.21927588 -0.07948906 0.19840083 -0.018342638
000020 8f 89 19 be 91 1a 76 3d 99 da c9 bd 8f 84 05 be
       -0.1499388 0.06008393 -0.09856147 -0.13038848
000030 87 1d d8 3d 08 53 bc bd a0 a3 f8 3d 05 c7 aa bd
       0.10552507 -0.091955245 0.12140584 -0.08338741
000040 d1 7e 49 3e 03 91 95 3c ea 45 c8 bb fa 2c ad 3e
       0.19677283 0.018257624 -0.00611185 0.33823377
000050 36 8c 8e bd 68 a0 9c 3d e1 4e e8 bd ea ec 69 3e
       -0.06960337 0.076477826 -0.1134317 0.22844282
000060 ac 0c 8e 3e e5 c0 5f bd 9a 0a 3a be 5b d6 e1 bd
       0.27744043 -0.054627318 -0.18168107 -0.11027213
000070 46 79 65 bd e7 1a a3 bd 45 8a 04 be 13 5b 99 3e
       -0.05602386 -0.079641156 -0.1294337 0.29952297

fc.2.weight f4 [1, 32]
000000 18 39 8a 3e fd 89 9d 3e 05 72 21 3f 75 14 9c be
       0.26996684 0.3076934 0.63064605 -0.30484357
000010 40 0f b1 3e 30 00 a7 be d1 75 dc 3e c4 6e 54 be
       0.34581947 -0.3261733 0.43058637 -0.20745379
000020 16 9c c8 be a0 2a a7 bc 68 a1 27 be 06 8f 82 be
       -0.39181584 -0.020406067 -0.16370165 -0.25499743
000030 60 c2 c0 3e 8f 33 a3 be ce 9f bf 3e d6 1e 7e 3d
       0.37648296 -0.31875274 0.3742661 0.062041126
000040 f3 c3 ab 3e 61 88 47 be e4 12 0f 3c d5 75 87 3e
       0.33547935 -0.19485618 0.008732531 0.26457086
000050 97 75 4d be a1 50 04 be 95 aa 2a 3e 9a af ce 3e
       -0.20064388 -0.12921382 0.16666634 0.40368348
000060 31 b8 81 3e 17 c9 07 be 60 16 4b be 68 a9 7f 3a
       0.2533584 -0.13260303 -0.19832754 0.00097527215
000070 69 a4 1a 3e 8b 40 93 3c c3 75 87 3d 68 8a c3 3e
       0.1510178 0.017975112 0.06614258 0.38191533
