sensor_embeddings/2b47096c-690d-4614-b34f-e6c252ef291c.npy (npy, 1664 bytes, 1 tensors)

array f4 [3, 128]
-0.0725618 0.13436061 -0.024242766 0.030552179 0.09251356 0.14084156 -0.016672254 0.121596485
-0.06781725 -0.06367895 0.08006993 -0.10953717 0.07561751 -0.020801328 0.10464544 0.1404226
0.05337594 0.0054021403 -0.016508654 0.04047712 -0.021915637 0.026501156 -0.10432893 -0.028225832
0.024984173 0.06552174 0.07364277 0.10373755 0.09421193 -0.04977064 -0.12160165 0.0011228621
-0.019975848 0.03540942 -0.001547195 -0.015334532 -0.058754615 -0.0023136511 0.0857566 -0.12907335
-0.020345852 -0.029366776 0.026011571 -0.09908268 -0.053961463 0.019836195 0.022203892 0.049660712
0.11243248 0.12224377 0.07434416 0.1063289 0.006770715 -0.17407882 0.024414748 -0.060419664
-0.014716752 -0.017549574 0.04640162 0.07480883 0.008775815 -0.0026840866 0.056389004 -0.020617418
-0.095649734 -0.04702926 -0.0052813888 -0.046878792 -0.08881593 -0.06515022 0.030042917 -0.0068850666
-0.05181828 -0.076403655 0.10747938 0.11634095 -0.09713595 -0.0584884 0.13051204 0.060900934
0.004903488 -0.022082686 0.10780469 0.09010301 0.027620934 0.04677678 -0.019580599 -0.043064386
-0.017719999 0.096567206 0.025630467 -0.0010128617 0.006488815 -0.08557398 0.122732066 -0.05631414
0.058925115 0.023305006 -0.054682195 -0.03454785 0.0037396774 -0.059205186 -0.050445676 -0.08861787
0.15693167 -0.11884147 -0.15368375 -0.043320544 0.029754668 -0.08331627 -0.03080649 -0.03391011
-0.069828324 -0.04136555 -0.0012026355 -0.06791785 0.13810068 -0.008401945 -0.095790364 0.015754152
-0.040133476 0.007806517 -0.10264264 -0.030959636 -0.085647225 0.018359393 -0.05958897 -0.16692598
-0.07366872 0.13354644 -0.023479864 0.029657312 0.09151149 0.13997558 -0.012534201 0.122026026
-0.06281679 -0.063741736 0.07796472 -0.110576004 0.07427138 -0.021813042 0.103489466 0.13989922
0.05415937 0.003314592 -0.021170184 0.040629447 -0.022378445 0.026294433 -0.104981214 -0.028199904
0.024419524 0.06862756 0.07077489 0.102394834 0.09132038 -0.04974337 -0.124305226 -0.0015758574
-0.017061062 0.035665482 -0.0015522316 -0.011015192 -0.05854108 -0.0016396418 0.0851635 -0.12894315
-0.020172402 -0.031322837 0.027114913 -0.0986985 -0.055895843 0.021232627 0.021354914 0.0509696
0.11089768 0.1229853 0.07254973 0.10734135 0.0063177943 -0.1767726 0.028303832 -0.059167117
-0.015088268 -0.018219963 0.046712324 0.08140066 0.009177893 -0.0029943734 0.05480346 -0.02112677
-0.09973921 -0.04635604 -0.007863894 -0.04537929 -0.08967156 -0.065842815 0.027778551 -0.0053230077
-0.050783485 -0.07627193 0.10962798 0.11826153 -0.0949971 -0.056744464 0.12991819 0.061363064
0.0053362325 -0.015902579 0.10795186 0.08995556 0.031687997 0.044180416 -0.019765317 -0.04447122
-0.018555075 0.09543262 0.027799241 -0.00045238435 0.00686593 -0.0843424 0.11965494 -0.056825116
0.055657648 0.022109702 -0.051678136 -0.029542401 0.005315326 -0.059774626 -0.053419888 -0.09013551
0.15685083 -0.11611536 -0.1529352 -0.041945085 0.026224345 -0.084195025 -0.028965421 -0.03566222
-0.07184281 -0.04144703 -0.0028960146 -0.06837943 0.13774833 -0.007896975 -0.096337676 0.018138167
-0.040664777 0.013283022 -0.10019803 -0.03543973 -0.08926484 0.018034384 -0.059348624 -0.16703898
00000000: 489b 94bd d495 093e c498 c6bc 9048 fa3c
00000010: c077 bd3d c538 103e 4094 88bc 9407 f93d
00000020: c5e3 8abd 1c6a 82bd b4fb a33d 0655 e0bd
00000030: 5add 9a3d 8c67 aabc 5950 d63d f1ca 0f3e
00000040: bba0 5a3d 7004 b13b 283d 87bc 56cb 253d
00000050: 6c88 b3bc f418 d93c 68aa d5bd dc39 e7bc
00000060: 9cab cc3c 4330 863d 05d2 963d 5a74 d43d
00000070: 2ff2 c03d 4cdc 4bbd 490a f9bd 002d 933a
00000080: 64a4 a3bc 7809 113d 40cb caba b03d 7bbc
00000090: aea8 70bd a0a0 17bb 28a1 af3d ce2b 04be
000000a0: 58ac a6bc 9892 f0bc 3816 d53c dceb cabd
000000b0: b206 5dbd 847f a23c f0e4 b53c 0869 4b3d
000000c0: 0043 e63d f15a fa3d c041 983d f7c2 d93d
000000d0: e0dc dd3b b841 32be 7001 c83c 9c7a 77bd
000000e0: 881e 71bc 20c4 8fbc a00f 3e3d 5f35 993d
000000f0: 70c8 0f3c 80e7 2fbb 28f8 663d dce5 a8bc
00000100: 02e4 c3bd c1a1 40bd 800f adbb fa03 40bd
00000110: 20e5 b5bd 7b6d 85bd 901c f63c 209c e1bb
00000120: 683f 54bd 8579 9cbd 261e dc3d 2a44 ee3d
00000130: 37ef c6bd 8891 6fbd f3a4 053e 4273 793d
00000140: 70ad a03b c0e6 b4bc b5c8 dc3d ed87 b83d
00000150: 4c45 e23c 0299 3f3d 7e67 a0bc 4864 30bd
00000160: 8829 91bc 07c5 c53d fcf6 d13c 00c2 84ba
00000170: 20a0 d43b 6941 afbd f35a fb3d a8a9 66bd
00000180: 765b 713d 24ea be3c 70fa 5fbd 0c82 0dbd
00000190: 6015 753b 2381 72bd 20a0 4ebd 497d b5bd
000001a0: b2b2 203e 2863 f3bd 465f 1dbe e270 31bd
000001b0: 10c0 f33c b8a1 aabd e45d fcbc 54e5 0abd
000001c0: 2702 8fbd ec6e 29bd c0a1 9dba 8418 8bbd
000001d0: 446a 0d3e 50a8 09bc bd2d c4bd da0e 813c
000001e0: 0063 24bd d0cd ff3b 4e36 d2bd 109f fdbc
000001f0: d067 afbd 7066 963c 9013 74bd a5ee 2abe
00000200: a0df 96bd 66c0 083e d858 c0bc e4f3 f23c
00000210: 606a bb3d c255 0f3e 405c 4dbc c8e8 f93d
00000220: 17a6 80bd 078b 82bd f8ab 9f3d ac75 e2bd
00000230: 981b 983d 44b1 b2bc 49f2 d33d be41 0f3e
00000240: 37d6 5d3d a039 593b 186d adbc 106b 263d
00000250: 0053 b7bc 6c67 d73c 6400 d7bd 7c03 e7bc
00000260: 740b c83c 9b8c 8c3d 6df2 903d 62b4 d13d
00000270: 2e06 bb3d b4bf 4bbd bd93 febd 008d ceba
00000280: a4c3 8bbc f815 123d 4074 cbba 1079 34bc
00000290: c6c8 6fbd 40e9 d6ba 336a ae3d ac09 04be
000002a0: 9840 a5bc 604c 00bd 1820 de3c 7022 cabd
000002b0: 0af3 64bd 0cf0 ad3c 80f0 ae3c 80c5 503d
000002c0: 531e e33d b8df fb3d f494 943d c8d5 db3d
000002d0: 8005 cf3b e003 35be 70dd e73c 3859 72bd
000002e0: c834 77bc 0842 95bc 6c55 3f3d 64b5 a63d
000002f0: e05e 163c 403d 44bb 9879 603d 0c12 adbc
00000300: 1244 ccbd d5df 3dbd 90d7 00bc a2df 39bd
00000310: b9a5 b7bd 99d8 86bd d88f e33c a06c aebb
00000320: 5802 50bd 7534 9cbd a284 e03d 1a33 f23d
00000330: d78d c2bd e26c 68bd 4609 053e d657 7b3d
00000340: 90db ae3b 2046 82bc dd15 dd3d 9f3a b83d
00000350: 46cb 013d 86f6 343d e0ea a1bc 7427 36bd
00000360: d000 98bc 2d72 c33d 3cbb e33c 002e edb9
00000370: 98fb e03b b5bb acbd a60d f53d 74c1 68bd
00000380: 46f9 633d 681f b53c 74ac 53bd e802 f2bc
00000390: 302c ae3b 3dd6 74bd d0ce 5abd f798 b8bd
000003a0: 819d 203e e4cd edbd 0c9b 1cbe 9cce 2bbd
000003b0: 70d4 d63c 716e acbd e448 edbc 8c12 12bd
000003c0: 5322 93bd 5cc4 29bd 10cb 3dbb 840a 8cbd
000003d0: e60d 0d3e 5062 01bc b04c c5bd 7e96 943c
000003e0: 1c90 26bd 08a1 593c a034 cdbd 4029 11bd
000003f0: 7cd0 b6bd d8bc 933c 8b17 73bd 440c 2bbe
